hello/assets/flutter_assets/assets/model.tflite (tflite, 793532 bytes, 13 tensors)

arith.constant f2 [89, 64]
1.737 0.7124 -1.905 1.379 -2.25 0.524 -0.2216 -0.0207
-0.4702 -2.643 -1.453 0.4492 0.0211 0.9546 1.185 -0.015045
-1.184 -0.02798 0.2795 -0.045 -0.909 2.03 -0.727 0.4
3.023 -1.438 -0.7744 0.79 0.828 0.872 0.5103 0.02039
-1.167 1.58 -0.1043 2.71 0.3281 0.3677 -0.123 0.9346
0.1436 1.818 0.5854 0.33 1.071 2.32 -1.76 -0.527
-0.8364 0.404 0.9375 -0.08246 -0.3354 1.17 0.1967 0.04324
-0.3052 -0.8794 -1.163 -0.644 2.102 -0.3335 -2.096 -1.205
0.6865 1.242 -1.143 0.376 -0.875 0.647 0.77 -0.8057
0.6216 -1.106 0.05963 0.777 1.534 2.146 0.3655 -0.4417
-0.289 0.1127 -0.4749 0.3447 -0.3645 0.3223 0.9526 0.266
0.5605 -1.543 -2.664 0.2625 0.444 0.2979 1.888 0.4932
-2.707 -0.05035 -0.7725 0.519 -0.643 0.344 1.244 2.086
0.9683 0.2756 1.376 2.754 1.802 1.246 -0.1466 -2.143
-0.7476 1.283 0.1833 0.7383 -0.08417 0.8154 -1.404 0.987
-1.11 -2.64 -1.169 -1.386 -0.043 -1.756 -1.56 -1.368
0.191 0.03928 -0.10767 -0.02266 -0.05707 -0.07056 -0.395 0.257
-0.1815 -0.295 -0.06366 0.0567 -0.01569 0.00925 0.1569 0.03023
0.04712 0.1891 0.1389 -0.1411 0.004333 0.06464 -0.1534 -0.01418
0.1763 -0.167 -0.04645 0.02748 0.10266 -0.00408 -0.1804 0.0199
-0.1637 0.269 0.05963 0.1857 0.1759 -0.02893 -0.1771 0.0071
-0.1567 0.172 -0.0641 -0.01636 0.1445 0.166 0.03323 0.03848
0.0335 -0.2081 0.1407 -0.31 -0.2147 0.04984 0.0559 0.01733
0.0821 -0.05444 -0.262 0.02081 0.2566 -0.1123 -0.1293 -0.0674
0.1654 0.2047 -0.27 0.02496 -0.1017 0.1982 -0.0975 0.1075
-0.11035 -0.377 -0.3342 0.1835 -0.1122 0.0525 0.02893 0.1943
0.01224 -0.03674 0.2263 -0.06537 -0.1263 0.3691 -0.1893 0.11005
0.143 -0.112 0.05417 -0.01834 0.2236 0.02843 -0.02739 0.1575
-0.001456 0.2666 -0.04208 0.2795 0.0525 0.0988 -0.1236 0.04123
-0.03885 0.3914 0.05597 0.009155 0.0826 0.1418 -0.304 0.02953
-0.12036 0.02226 0.2793 -0.11884 -0.1321 -0.09906 -0.01348 0.01173
-0.02023 -0.0851 -0.10504 -0.0889 0.1346 -0.0374 -0.0831 -0.05002
00000000: f33e b339 9fbf 843d 80c0 3138 17b3 4da5
00000010: 86b7 49c1 d0bd 3037 6725 a33b bd3c b4a3
00000020: bcbc 2aa7 7934 c3a9 46bb 0f40 d1b9 6636
00000030: 0c42 c1bd 32ba 523a a03a fa3a 1538 3825
00000040: abbc 523e adae 6c41 4035 e235 dfaf 7a3b
00000050: 9830 463f af38 4835 493c a440 0abf 37b8
00000060: b1ba 7736 803b 47ad 5eb5 ae3c 4b32 8929
00000070: e2b4 09bb a7bc 27b9 3440 56b5 31c0 d2bc
00000080: 7e39 f83c 92bc 0436 00bb 2d39 293a 72ba
00000090: f938 6dbc a22b 373a 233e 4b40 d935 11b7
000000a0: a0b4 362f 99b7 8435 d5b5 2835 9f3b 4234
000000b0: 7c38 2cbe 54c1 3334 1b37 c434 8d3f e437
000000c0: 6ac1 72aa 2eba 2738 25b9 8135 fa3c 2c40
000000d0: bf3b 6934 813d 8241 353f fc3c b1b0 49c0
000000e0: fbb9 223d de31 e839 63ad 863a 9ebd e53b
000000f0: 71bc 48c1 adbc 8bbd 81a9 06bf 3dbe 79bd
00000100: 1d32 0729 e4ae cda5 4eab 84ac 52b6 1d34
00000110: cfb1 b8b4 13ac 422b 04a4 bc20 0531 bd27
00000120: 082a 0d32 7230 84b0 701c 232c e9b0 43a3
00000130: a431 58b1 f2a9 0927 922e 2e9c c6b1 1825
00000140: 3db1 4e34 a22b f131 a131 68a7 abb1 451f
00000150: 04b1 8131 1aac 30a4 a030 5031 4128 ed28
00000160: 4a28 a9b2 8130 f6b4 dfb2 612a 282b 7024
00000170: 412d f8aa 31b4 5425 1b34 30af 23b0 50ac
00000180: 4b31 8d32 52b4 6426 82ae 5832 3dae e12e
00000190: 10af 08b6 59b5 df31 2eaf b82a 6827 3832
000001a0: 4422 b4a8 3e33 2fac 0bb0 e835 0fb2 0b2f
000001b0: 9330 2baf ef2a b2a4 2833 4727 03a7 0a31
000001c0: f795 4434 63a9 7934 b82a 532e e9af 4729
000001d0: f9a8 4336 2a2b b020 492d 8a30 ddb4 8f27
000001e0: b4af b325 7834 9baf 3ab0 57ae e7a2 0122
000001f0: 2ea5 72ad b9ae b1ad 4f30 caa8 52ad 67aa

arith.constant8 f2 [89, 128]
0.0533 0.441 -0.0586 0.4734 0.567 0.2052 -0.152 0.432
-0.369 0.1072 0.1617 -0.565 -0.5547 -0.2573 -0.1494 -0.4192
0.09064 0.4524 0.0642 -0.1062 0.5825 0.8047 0.221 -0.2788
0.43 0.1278 -0.1274 -0.4094 0.01825 -0.936 -0.317 0.3984
-0.3308 -0.4792 -0.1636 -0.4558 -0.3806 0.1702 -0.036 -0.3235
0.666 0.3552 0.949 0.7065 -0.5645 0.1979 -0.0817 -0.8076
0.5146 -1.246 -0.3894 0.3704 0.797 -0.2202 -0.03235 0.0526
0.0824 -0.828 0.2976 0.937 0.0815 -0.513 0.1974 -0.03833
0.52 -0.6616 0.2231 -0.009995 -0.1577 0.7812 0.971 0.05038
0.465 0.2006 0.5947 0.353 -0.1283 0.9014 -0.27 -1.135
-0.971 -0.55 0.767 -0.3677 -0.379 -0.3232 -0.2201 -0.2123
0.1312 -1.024 -0.601 0.4065 -1.268 -0.4163 -0.836 -0.473
0.109 -0.3735 0.07886 -0.05573 0.1236 0.9917 0.12305 0.3208
-0.1614 -0.3066 0.314 0.3386 0.195 0.6636 1.0 0.1243
0.7954 0.2179 -0.294 -0.3945 0.3425 0.53 0.5913 -0.11786
-0.5347 0.3743 0.432 -0.1492 0.0706 -0.2942 0.2042 -0.253
-0.03995 0.5835 -0.212 -0.6694 -0.0551 0.2725 0.082 0.312
-0.2358 0.1368 0.2201 -0.1301 0.1553 -0.1255 -0.4531 -0.1456
-0.1719 0.438 -0.1587 0.2473 0.676 -0.2333 0.2236 0.1416
0.3137 0.1763 -0.506 0.1421 -0.225 0.2074 -0.5767 -0.2362
-0.28 -0.352 0.3022 -0.4705 -0.015305 0.336 0.148 -0.1004
-0.4556 0.2078 0.3596 -0.5117 -0.2377 0.2424 0.528 -0.1294
0.314 -0.7163 -0.05984 0.305 -0.11053 0.2266 -0.3433 0.09814
-0.03232 0.2062 0.5815 -0.2035 0.4253 -0.2505 0.3162 -0.2686
-0.3013 -0.474 -0.2084 0.03262 -0.1184 0.7837 -0.2157 -0.1162
0.5015 0.195 0.006683 -0.2688 -0.1655 0.816 -0.7515 0.7407
0.617 -0.481 0.0532 -0.1804 -0.2119 -0.2517 -0.00626 -0.1797
0.1874 0.41 -0.512 0.512 0.0645 0.214 -0.1738 -0.3984
-0.159 -0.1368 0.1537 -0.02196 0.132 -0.4688 -0.457 0.386
0.01901 -0.221 -0.325 0.4 0.1149 0.04184 1.099 -0.3394
-0.08136 -0.716 -0.4114 -0.707 0.1442 -0.2827 -0.3235 -0.1262
0.192 0.0444 0.3735 -0.3457 0.3435 0.1116 -0.2632 -0.7188
00000000: d32a 0e37 80ab 9337 8938 9132 ddb0 e936
00000010: e7b5 dc2e 2d31 85b8 70b8 1eb4 c8b0 b5b6
00000020: cd2d 3d37 1c2c ccae a938 703a 1233 76b4
00000030: e136 1730 14b0 8db6 ac24 7dbb 12b5 6036
00000040: 4bb5 abb7 3cb1 4bb7 17b6 7231 9ca8 2db5
00000050: 5439 af35 983b a739 84b8 5532 3bad 76ba
00000060: 1e38 fcbc 3bb6 ed35 603a 0cb3 24a8 bc2a
00000070: 462d a0ba c334 7f3b 372d 1bb8 5132 e8a8
00000080: 2938 4bb9 2433 1ea1 0cb1 403a c53b 732a
00000090: 7137 6b32 c238 a635 1bb0 363b 52b4 8abc
000000a0: c5bb 66b8 233a e2b5 10b6 2cb5 0bb3 cbb2
000000b0: 3330 19bc cfb8 8136 12bd a9b6 b0ba 91b7
000000c0: fa2e fab5 0c2d 22ab e92f ef3b e02f 2235
000000d0: 2ab1 e8b4 0635 6b35 3d32 4f39 003c f52f
000000e0: 5d3a f932 b4b4 50b6 7b35 3d38 bb38 8baf
000000f0: 47b8 fd35 e936 c6b0 852c b5b4 8932 0cb4
00000100: 1da9 ab38 c9b2 5bb9 0eab 5c34 3f2d fe34
00000110: 8cb3 6130 0b33 2ab0 f830 04b0 40b7 a9b0
00000120: 80b1 0237 14b1 ea33 6839 77b3 2833 8830
00000130: 0535 a431 0cb8 8c30 33b3 a332 9db8 8fb3
00000140: 7bb4 a2b5 d634 87b7 d6a3 6035 bc30 6dae
00000150: 4ab7 a632 c135 18b8 9bb3 c233 3938 24b0
00000160: 0635 bbb9 a9ab e134 13af 4033 7eb5 482e
00000170: 23a8 9932 a738 83b2 ce36 02b4 0f35 4cb4
00000180: d2b4 96b7 abb2 2d28 94af 453a e7b2 70af
00000190: 0338 3d32 d81e 4db4 4cb1 873a 03ba ed39
000001a0: f038 b2b7 cf2a c6b1 c8b2 07b4 699e c0b1
000001b0: ff31 8f36 19b8 1938 212c d932 90b1 60b6
000001c0: 17b1 61b0 eb30 9fa5 3930 80b7 50b7 2d36
000001d0: de24 12b3 33b5 6636 5b2f 5b29 653c 6eb5
000001e0: 35ad bab9 95b6 a8b9 9d30 86b4 2db5 0ab0
000001f0: 2532 af29 fa35 88b5 7f35 242f 36b4 c0b9

arith.constant9 f2 [89]
-0.12177 0.1109 -0.1008 0.02278 -0.1361 -0.11414 -0.08386 -0.08405
-0.525 -0.2852 -0.2957 -0.4026 -0.3086 -0.2905 -0.2145 0.2249
-0.5024 -0.095 -0.463 -0.3174 -0.2761 -0.2266 -0.4792 0.023
-0.4324 -0.4985 -0.3804 -0.426 -0.242 -0.4397 0.1764 0.2258
-0.279 -0.2322 0.02649 -0.586 0.0575 -0.03717 0.3325 -0.252
-0.2588 -0.06158 0.003836 0.1465 0.2452 -0.3047 -0.2457 0.597
0.3289 -0.01065 -0.3494 0.3027 -0.1434 -0.3154 -0.591 -0.3652
-0.533 -0.1824 -0.4392 0.188 0.01065 -0.09656 -0.1656 -0.05035
-0.2198 0.1106 0.265 -0.1593 -0.1809 -0.12225 0.06384 0.0969
0.107 0.123 -0.02498 -0.1456 0.0193 0.257 0.128 -0.4075
0.05545 0.184 -0.63 -0.1553 -0.2712 -0.28 -0.459 -0.3806
-0.5737
00000000: cbaf 192f 74ae d525 5bb0 4eaf 5ead 61ad
00000010: 33b8 90b4 bbb4 71b6 f0b4 a6b4 ddb2 3233
00000020: 05b8 14ae 68b7 14b5 6bb4 40b3 abb7 e325
00000030: ebb6 fab7 16b6 d1b6 beb3 09b7 a531 3a33
00000040: 77b4 6eb3 c826 b0b8 5c2b c2a8 5235 08b4
00000050: 24b4 e2ab db1b b030 d933 e0b4 ddb3 c738
00000060: 4335 74a1 97b5 d834 97b0 0cb5 bab8 d8b5
00000070: 44b8 d6b1 07b7 0432 7421 2eae 4db1 72aa
00000080: 09b3 142f 3d34 19b1 cab1 d3af 162c 342e
00000090: d92e df2f 65a6 a9b0 f124 1d34 1930 85b6
000000a0: 192b e331 0ab9 f8b0 57b4 7bb4 58b7 17b6
000000b0: 97b8

arith.constant10 f2 [1, 128]
0.0 0.0 0.0 0.0 0.0 0.0 0.0 0.0
0.0 0.0 0.0 0.0 0.0 0.0 0.0 0.0
0.0 0.0 0.0 0.0 0.0 0.0 0.0 0.0
0.0 0.0 0.0 0.0 0.0 0.0 0.0 0.0
0.0 0.0 0.0 0.0 0.0 0.0 0.0 0.0
0.0 0.0 0.0 0.0 0.0 0.0 0.0 0.0
0.0 0.0 0.0 0.0 0.0 0.0 0.0 0.0
0.0 0.0 0.0 0.0 0.0 0.0 0.0 0.0
0.0 0.0 0.0 0.0 0.0 0.0 0.0 0.0
0.0 0.0 0.0 0.0 0.0 0.0 0.0 0.0
0.0 0.0 0.0 0.0 0.0 0.0 0.0 0.0
0.0 0.0 0.0 0.0 0.0 0.0 0.0 0.0
0.0 0.0 0.0 0.0 0.0 0.0 0.0 0.0
0.0 0.0 0.0 0.0 0.0 0.0 0.0 0.0
0.0 0.0 0.0 0.0 0.0 0.0 0.0 0.0
0.0 0.0 0.0 0.0 0.0 0.0 0.0 0.0
00000000: 0000 0000 0000 0000 0000 0000 0000 0000
00000010: 0000 0000 0000 0000 0000 0000 0000 0000
00000020: 0000 0000 0000 0000 0000 0000 0000 0000
00000030: 0000 0000 0000 0000 0000 0000 0000 0000
00000040: 0000 0000 0000 0000 0000 0000 0000 0000
00000050: 0000 0000 0000 0000 0000 0000 0000 0000
00000060: 0000 0000 0000 0000 0000 0000 0000 0000
00000070: 0000 0000 0000 0000 0000 0000 0000 0000
00000080: 0000 0000 0000 0000 0000 0000 0000 0000
00000090: 0000 0000 0000 0000 0000 0000 0000 0000
000000a0: 0000 0000 0000 0000 0000 0000 0000 0000
000000b0: 0000 0000 0000 0000 0000 0000 0000 0000
000000c0: 0000 0000 0000 0000 0000 0000 0000 0000
000000d0: 0000 0000 0000 0000 0000 0000 0000 0000
000000e0: 0000 0000 0000 0000 0000 0000 0000 0000
000000f0: 0000 0000 0000 0000 0000 0000 0000 0000

arith.constant12 f2 [512]
0.01888 0.3093 0.438 0.4307 0.1146 0.3076 0.2197 0.318
0.1409 0.1874 0.04602 0.2832 0.271 0.2069 0.3638 0.04868
0.3733 0.0675 0.02916 0.298 0.1912 0.242 0.0432 0.2031
0.4888 0.283 0.3723 0.0566 0.3484 0.2524 0.1863 0.3796
0.0545 -0.00516 0.2754 0.211 0.0852 0.2164 0.1383 0.1628
0.2124 0.2998 0.08185 0.02164 0.1177 0.3025 0.3047 0.3342
0.3699 0.02531 0.01226 0.3462 0.421 0.2617 0.328 0.0104
0.0966 0.1759 0.2612 0.2094 0.3003 0.04016 0.1841 0.1131
0.2096 0.1395 0.3586 0.05997 0.2515 0.2336 0.299 0.08606
0.4438 0.2333 0.1691 0.2172 0.0871 0.5464 0.383 0.2617
0.4893 0.1215 0.04297 0.04742 0.3596 0.309 0.381 0.1554
0.1843 0.3086 0.3638 0.3022 0.3032 0.1229 0.2449 0.2979
0.3948 0.3704 0.2598 0.02197 0.3003 0.2456 0.1925 0.462
0.01791 0.2433 0.03287 0.2993 0.01352 0.304 0.01926 0.02766
0.288 0.4207 -0.01027 0.2808 0.2703 0.2988 0.254 0.2686
0.4277 0.288 0.147 0.1356 0.1998 0.185 0.2158 0.3438
1.032 0.861 0.9 0.8916 0.9824 0.9834 1.056 1.284
1.075 1.033 1.001 1.173 0.9507 0.9844 0.8667 1.058
0.919 1.078 1.146 1.127 1.024 1.014 1.033 0.93
0.955 0.919 0.8413 1.056 0.833 0.8794 0.9395 0.9175
1.08 1.063 1.097 0.8843 1.068 1.011 1.043 1.122
0.931 1.063 1.072 1.045 1.061 1.034 0.6343 1.058
0.8994 1.095 1.013 1.155 0.8867 0.7783 1.015 1.0625
0.9995 0.9517 0.9717 0.87 0.908 1.078 1.121 1.092
1.031 0.7173 0.7397 0.8623 0.939 0.812 1.243 0.8755
1.016 0.8384 1.02 1.005 0.9985 0.919 0.84 0.9805
0.8237 1.13 0.9634 1.045 0.7603 1.092 1.067 1.016
0.988 0.912 1.02 1.029 0.8438 1.1 1.012 0.8784
0.905 0.972 1.09 1.089 0.9473 0.895 1.153 1.037
1.032 0.985 0.9917 1.206 1.049 0.8027 1.037 1.036
0.9097 0.749 1.041 0.9365 1.026 0.7363 1.129 1.114
0.9624 0.996 1.07 0.971 0.99 0.994 0.865 1.08
00000000: d524 f334 0237 e436 562f ec34 0833 1735
00000010: 8230 ff31 e429 8834 5634 9f32 d235 3b2a
00000020: f935 522c 7727 c534 1e32 be33 8829 8032
00000030: d237 8734 f535 3f2b 9335 0a34 f631 1336
00000040: fa2a 499d 6834 c132 742d ed32 6d30 3631
00000050: cc32 cc34 3d2d 8a25 882f d734 e034 5935
00000060: eb35 7b26 4722 8a35 bc36 3034 3f35 5321
00000070: 2f2e a131 2e34 b332 ce34 2429 e431 3d2f
00000080: b532 7730 bd35 ad2b 0634 7a33 c934 822d
00000090: 1a37 7733 6931 f332 932d 5f38 2136 3034
000000a0: d437 c72f 8029 122a c135 f234 1936 f930
000000b0: e631 f034 d235 d634 da34 de2f d633 c434
000000c0: 5136 ed35 2834 a025 ce34 dc33 2932 6437
000000d0: 9624 c933 3528 ca34 ec22 dd34 ee24 1527
000000e0: 9c34 bb36 42a1 7e34 5334 c834 1034 4c34
000000f0: d836 9c34 b430 5730 6532 ec31 e832 8035
00000100: 213c e33a 333b 223b dc3b de3b 393c 233d
00000110: 4d3c 223c 013c b13c 9b3b e03b ef3a 3b3c
00000120: 5a3b 503c 963c 823c 193c 0e3c 223c 713b
00000130: a43b 5a3b bb3a 393c aa3a 093b 843b 573b
00000140: 523c 413c 633c 133b 463c 0b3c 2c3c 7d3c
00000150: 733b 413c 4a3c 2e3c 3e3c 233c 1339 3b3c
00000160: 323b 613c 0d3c 9f3c 183b 3a3a 0f3c 403c
00000170: ff3b 9d3b c63b f63a 443b 503c 7c3c 5e3c
00000180: 203c bd39 eb39 e63a 833b 7f3a f93c 013b
00000190: 103c b53a 143c 053c fd3b 5a3b b83a d83b
000001a0: 973a 853c b53b 2e3c 153a 5e3c 453c 103c
000001b0: e73b 4c3b 143c 1e3c c03a 663c 0c3c 073b
000001c0: 3d3b c73b 5c3c 5b3c 943b 293b 9d3c 263c
000001d0: 213c e13b ef3b d33c 323c 6c3a 263c 253c
000001e0: 473b fe39 2a3c 7e3b 1b3c e439 843c 753c
000001f0: b33b f83b 483c c53b ec3b f43b ec3a 523c

arith.constant18 f2 [512, 128]
0.03098 0.07336 0.0766 0.05743 0.07587 -0.0437 -0.00826 0.06168
-0.03793 0.0783 0.0891 -0.06525 0.09937 0.144 -0.0111 -0.0526
0.05798 0.03555 0.0765 -0.00406 -0.0823 0.00559 -0.01776 -0.0592
-0.004425 -0.1436 0.00938 -0.02348 0.1183 -0.0692 0.0608 0.0751
0.016 -0.1335 -0.02872 -0.04196 0.04837 -0.1029 -0.06104 0.05377
0.02422 -0.00537 -0.02063 -0.03137 0.1161 0.01791 0.02132 0.0789
-0.00751 -0.0258 0.0196 0.04074 0.11194 -0.02968 -0.0295 -0.05533
-0.08923 0.10583 -0.002213 -0.061 0.07764 0.02325 0.03336 -0.1222
0.05493 0.01048 0.03357 -0.02774 0.1365 0.0699 0.1079 -0.01671
0.04257 -0.02939 0.04953 0.005943 0.0741 0.03986 -0.0949 -0.01964
0.02672 0.002132 0.0495 0.01495 -0.003832 -0.03583 0.06946 -0.03726
0.01816 -0.01551 -0.02452 -0.0671 -0.02513 0.07776 0.0919 -0.0494
0.04996 -0.02765 0.02472 -0.046 0.10864 0.077 0.0729 0.0185
0.05737 -0.1385 -0.04254 -0.06195 0.04257 0.0608 -0.0603 0.12164
0.04782 0.05634 0.04675 0.01453 0.09094 -0.09357 -0.010475 -0.08575
0.08856 0.1107 -0.064 0.1473 0.002518 0.02753 0.0991 -0.0761
0.242 0.0861 -0.423 0.5024 -0.06 0.5166 -0.05103 -0.2136
-0.2717 0.7515 0.3418 -0.01913 0.6187 0.591 -0.483 0.0983
-0.952 -0.0892 -0.03041 -0.3933 -0.3262 0.256 0.2512 -0.314
-0.417 -0.3425 0.04984 0.426 -0.1267 0.7734 0.3806 0.1699
0.4346 -0.2407 -0.3987 0.614 -0.0679 -0.5757 0.732 0.505
0.3652 0.839 -0.9575 -0.5493 1.081 -0.06805 -0.819 -0.01043
-0.525 -0.3325 0.2944 0.586 0.3425 0.15 -0.0755 0.2847
-0.2198 -0.1506 -0.3755 0.4941 0.14 0.4258 -0.2969 -0.209
-0.7534 -0.6865 0.2397 -0.2097 -0.1678 0.6826 0.04932 0.11694
-0.2157 -0.166 -0.2224 0.4214 0.2122 0.3171 -0.1495 0.3572
-0.478 -0.6426 0.509 -0.3289 0.01339 -0.198 0.4565 -0.47
-0.4573 -0.6772 -0.8896 -0.2827 0.2366 -0.1241 0.47 0.2036
0.3037 -0.02415 -0.482 0.308 0.3188 0.31 -0.0888 0.6626
-0.05634 -0.3909 -0.002182 -0.4788 0.0764 0.3123 0.3945 0.1398
-0.0974 0.05203 0.298 -0.4678 0.555 -0.1265 0.3557 -0.2362
0.2249 0.1748 0.07574 0.1917 -0.4604 -0.4646 0.1608 -0.9136
00000000: ee27 b22c e72c 5a2b db2c 98a9 3ba0 e52b
00000010: dba8 032d b42d 2dac 5c2e 9c30 afa1 bcaa
00000020: 6c2b 8d28 e52c 289c 44ad b91d 8ca4 94ab
00000030: 889c 98b0 cd20 03a6 922f 6eac c82b ce2c
00000040: 1924 46b0 5aa7 5fa9 312a 96ae d0ab e22a
00000050: 3326 809d 48a5 04a8 6e2f 9624 7525 0d2d
00000060: b19f 9ba6 0525 3729 2a2f 99a7 8da7 15ab
00000070: b6ad c62e 8898 cfab f82c f425 4528 d2af
00000080: 082b 5e21 4c28 1aa7 5e30 792c e82e 47a4
00000090: 7329 86a7 572a 161e be2c 1a29 13ae 07a5
000000a0: d726 5e18 562a a823 d99b 96a8 722c c5a8
000000b0: a624 f1a3 47a6 4bac 6fa6 fa2c e22d 53aa
000000c0: 652a 14a7 5426 e3a9 f42e ee2c aa2c bc24
000000d0: 582b 6fb0 72a9 eeab 7329 c82b b8ab c92f
000000e0: 1f2a 362b fc29 7023 d22d fdad 5da1 7dad
000000f0: ab2d 162f 19ac b730 2819 0c27 582e dfac
00000100: be33 832d c5b6 0538 aeab 2238 88aa d6b2
00000110: 59b4 033a 7835 e6a4 f338 ba38 bab7 4b2e
00000120: 9ebb b5ad c9a7 4bb6 38b5 1934 0534 06b5
00000130: acb6 7bb5 612a d136 0eb0 303a 1736 7031
00000140: f436 b4b3 61b6 e938 58ac 9bb8 db39 0a38
00000150: d835 b63a a9bb 65b8 533c 5bac 8dba 57a1
00000160: 33b8 52b5 b634 b038 7b35 cd30 d5ac 8e34
00000170: 09b3 d2b0 02b6 e837 7b30 d036 c0b4 b0b2
00000180: 07ba 7eb9 ac33 b6b2 5fb1 7639 502a 7c2f
00000190: e7b2 50b1 1eb3 be36 ca32 1335 c9b0 b735
000001a0: a6b7 24b9 1238 43b5 db22 56b2 4e37 85b7
000001b0: 51b7 6bb9 1ebb 86b4 9233 f1af 8537 8432
000001c0: dc34 2fa6 b6b7 ee34 1a35 f634 afad 4d39
000001d0: 36ab 41b6 7898 a9b7 e42c ff34 5036 7930
000001e0: 3cae a92a c534 7cb7 7138 0cb0 b135 8fb3
000001f0: 3233 9831 d92c 2232 5eb7 6fb7 2531 4fbb

arith.constant20 f2 [512, 64]
0.09686 0.0781 -0.0949 -0.0716 0.0513 0.0759 -0.0706 -0.11633
0.0977 -0.07294 -0.02519 0.07526 -0.05002 0.05908 0.04547 -0.06744
0.07416 0.0817 0.02489 -0.0803 -0.0777 -0.03928 -0.00147 -0.0721
-0.0229 0.01432 0.01378 0.0166 0.0579 -0.06287 -0.04697 0.03305
-0.0447 0.1062 0.07947 -0.0321 0.0327 -0.01772 -0.02365 0.0485
-0.02449 -0.09406 0.0144 0.06757 0.03806 -0.05475 -0.01619 -0.0127
0.003574 0.00758 -0.02452 0.00847 0.015564 0.04086 -0.05527 0.00678
0.0125 0.10675 -0.06213 -0.02756 -0.03708 -0.0948 -0.0956 0.003185
0.06207 0.09436 -0.09515 0.1011 0.0234 -0.04764 -0.01076 -0.0877
-0.01517 -0.1859 0.4172 0.1691 0.3022 0.1412 0.1786 0.00815
-0.1897 0.2177 -0.393 0.156 -0.05945 -0.11554 0.1265 0.05307
0.1771 -0.1368 -0.094 -0.01321 0.0363 0.1731 0.1033 0.2878
-0.139 -0.1957 -0.05707 -0.11304 0.11395 0.0945 0.1896 -0.006756
0.1614 -0.01362 0.179 0.1318 0.10944 -0.05637 0.3943 -0.1914
-0.06537 0.2029 -0.1312 0.04733 -0.651 -0.2134 0.015594 0.182
-0.267 -0.11365 -0.1011 -0.2664 -0.1262 -0.2056 -0.02054 -0.0892
-0.05103 0.1266 -0.0742 0.1757 0.0681 -0.2445 0.11804 0.05093
-0.2522 0.1812 0.2783 0.2932 0.4053 0.1594 -0.00503 -0.1666
-0.06964 0.06616 0.255 0.2411 -0.392 -0.05304 0.0967 0.0911
0.1327 0.00264 -0.392 0.03384 -0.001968 -0.07477 0.2028 0.1221
-0.3723 -0.1455 -0.3806 -0.1365 -0.2064 0.1656 0.4807 0.2125
0.2427 -0.01214 0.1874 0.569 0.2756 0.1004 0.07 -0.2615
-0.07434 0.27 0.2156 0.1587 -0.00961 -0.2324 -0.11066 -0.4817
-0.1147 -0.10425 -0.03067 -0.327 -0.2291 -0.5503 -0.1114 -0.5083
-0.983 -0.4102 0.1888 0.269 -0.05792 -0.569 -0.08875 0.4214
-0.4988 0.8125 -0.684 -0.0655 0.1337 -0.00816 -0.3193 -0.1732
-0.137 0.3708 0.1951 0.651 -0.2969 -0.3289 -0.5728 0.3735
-0.12 -0.0813 -0.06824 -0.2412 -0.3125 -0.3394 -0.1324 -0.4128
0.11816 0.374 0.1693 -0.4658 0.1393 0.4412 -0.2693 -0.06216
-0.1388 -0.01008 -0.01337 0.0347 0.0883 0.0128 -0.1669 0.10675
0.3423 -0.1641 0.1924 0.007504 0.1595 -0.7505 0.1547 -0.966
0.3638 0.1461 -0.1528 0.01155 0.2507 -0.04407 -0.0518 -0.2338
00000000: 332e 002d 13ae 95ac 912a dc2c 85ac 72af
00000010: 412e abac 73a6 d12c 67aa 902b d229 51ac
00000020: bf2c 3b2d 5f26 24ad f9ac 07a9 0596 9dac
00000030: dda5 5523 0e23 4024 692b 06ac 03aa 3b28
00000040: b9a9 cc2e 162d 1ca8 3028 89a4 0ea6 352a
00000050: 45a6 05ae 5f23 532c df28 02ab 25a4 81a2
00000060: 521b c31f 47a6 5620 f823 3b29 13ab f11e
00000070: 6622 d52e f4ab 0ea7 bfa8 11ae 1eae 861a
00000080: f22b 0a2e 17ae 782e fe25 19aa 82a1 9dad
00000090: c4a3 f3b1 ad36 6931 d634 8530 b731 2c20
000000a0: 12b2 f732 4ab6 fe30 9cab 65af 0c30 cb2a
000000b0: ab31 61b0 04ae c3a2 a528 8a31 9c2e 9b34
000000c0: 73b0 43b2 4eab 3caf 4b2f 0c2e 1132 eb9e
000000d0: 2a31 f9a2 ba31 3830 012f 37ab 4f36 20b2
000000e0: 2fac 7e32 33b0 0f2a 35b9 d4b2 fc23 d331
000000f0: 46b4 46af 78ae 43b4 0ab0 94b2 42a5 b5ad
00000100: 88aa 0d30 c0ac 9f31 5c2c d3b3 8e2f 852a
00000110: 09b4 cc31 7434 b134 7c36 1a31 279d 55b1
00000120: 75ac 3c2c 1434 b733 46b6 caaa 302e d52d
00000130: 3f30 6819 46b6 5528 0898 c9ac 7d32 d02f
00000140: f5b5 a8b0 17b6 5eb0 9bb2 4d31 b137 cd32
00000150: c433 37a2 ff31 8d38 6934 6d2e 7b2c 2fb4
00000160: c2ac 5234 e632 1431 eca0 70b3 15af b5b7
00000170: 57af acae daa7 3bb5 55b3 67b8 21af 11b8
00000180: ddbb 90b6 0b32 4e34 6aab 8db8 aead be36
00000190: fbb7 803a 79b9 31ac 4730 2ea0 1cb5 8bb1
000001a0: 62b0 ef35 3e32 3539 c0b4 43b5 95b8 fa35
000001b0: aeaf 34ad 5eac b8b3 00b5 6eb5 3db0 9bb6
000001c0: 902f fc35 6b31 74b7 7530 0f37 4fb4 f5ab
000001d0: 71b0 29a1 d8a2 7128 a72d 8e22 57b1 d52e
000001e0: 7a35 40b1 2832 af1f 1b31 01ba f330 babb
000001f0: d235 ad30 e4b0 ea21 0334 a4a9 a1aa 7bb3

arith.constant22 f2 [512]
0.04462 0.02979 0.0734 0.0191 -0.0438 0.02057 0.2625 0.1482
0.0792 0.01775 0.1239 0.02495 -0.04758 -0.05334 0.0725 0.03117
0.0217 0.0352 0.04456 -0.01749 -0.0271 0.0693 0.05533 0.1223
-0.1393 0.1273 -0.00639 0.05145 0.11395 0.0824 -0.02737 0.03235
0.02354 0.0855 0.0506 0.1871 0.147 0.015526 0.12134 0.007683
0.09607 0.2073 0.02643 0.1302 0.132 0.04758 0.0935 0.03293
0.03998 -0.03253 0.2338 -0.0276 0.0932 0.02097 0.1777 0.0594
0.03723 0.01617 0.02974 0.03583 0.12054 0.0955 0.02882 -0.03952
0.04193 0.01833 0.1183 0.02548 0.1509 0.1274 0.02428 0.03482
0.02094 0.0391 0.1366 0.01379 0.04483 0.1263 0.173 -0.015396
0.1177 0.01724 0.01884 0.1832 0.03503 0.06586 0.07855 -0.006382
0.0343 0.03134 0.08124 0.01573 0.106 0.0001652 0.05316 0.01539
0.02106 0.03192 0.1775 0.00834 0.073 0.03607 0.02232 0.04462
0.03943 0.11383 0.02055 -0.03308 0.1229 0.02551 0.1262 0.01921
-0.03366 0.04535 0.01309 0.01804 0.03476 -0.01898 0.0561 -0.012215
0.04196 0.02261 0.04697 0.251 0.03998 0.1626 0.02496 0.01712
1.041 1.049 0.8594 1.037 1.059 0.9805 0.7285 0.8403
0.941 1.019 0.8804 0.915 0.976 0.8267 0.93 0.992
1.031 1.045 0.8613 0.8003 0.934 1.014 1.027 0.869
0.9346 0.939 0.967 1.031 1.041 1.003 0.8438 0.9194
1.034 0.8613 0.8564 1.043 0.7617 1.033 1.033 1.053
0.891 1.048 0.998 1.031 0.959 0.907 0.859 1.035
1.035 1.0205 0.95 1.007 0.91 1.034 0.9727 1.053
0.853 1.033 1.038 0.928 0.9844 1.047 1.042 0.9204
1.007 1.031 0.92 1.03 1.021 0.9204 1.035 1.039
1.035 1.032 0.9443 0.924 0.894 0.868 0.872 0.8955
0.924 1.037 1.046 0.999 0.927 1.026 0.9487 1.053
1.042 1.048 0.8857 1.026 0.965 0.9707 1.03 1.022
0.97 1.049 0.9595 0.9956 0.914 1.043 0.9688 0.9966
1.0205 1.03 1.031 0.8877 1.023 1.045 0.9185 1.026
1.006 1.025 1.003 1.022 1.03 0.7847 0.8604 0.9116
1.047 1.034 1.045 0.8857 1.042 0.9805 1.039 1.029
00000000: b629 a027 b32c e424 9ba9 4425 3334 be30
00000010: 122d 8b24 ee2f 6326 17aa d4aa a42c fb27
00000020: 8e25 8128 b429 7aa4 f0a6 6f2c 152b d42f
00000030: 75b0 1330 8b9e 962a 4b2f 462d 02a7 2428
00000040: 0726 792d 7a2a fd31 b430 f323 c42f de1f
00000050: 262e a232 c426 2b30 3930 172a fc2d 3728
00000060: 1e29 2aa8 7b33 11a7 f72d 5e25 b031 9a2b
00000070: c428 2424 9d27 9628 b72f 1d2e 6127 0fa9
00000080: 5e29 b124 922f 8626 d430 1430 3726 7528
00000090: 5c25 0129 5f30 0f23 bd29 0b30 8931 e2a3
000000a0: 882f 6a24 d324 dd31 7c28 372c 072d 899e
000000b0: 6428 0328 332d 0724 c92e 6a09 ce2a e123
000000c0: 6425 1628 ae31 4520 ac2c 9e28 b725 b629
000000d0: 0c29 492f 4325 3ca8 de2f 8826 0a30 eb24
000000e0: 4fa8 ce29 b422 9e24 7328 dca4 2e2b 41a2
000000f0: 5f29 ca25 032a 0434 1e29 3431 6426 6224
00000100: 2a3c 323c e03a 263c 3c3c d83b d439 b93a
00000110: 873b 133c 0b3b 523b cf3b 9d3a 713b f03b
00000120: 203c 2e3c e43a 673a 793b 0e3c 1c3c f43a
00000130: 7a3b 833b bc3b 203c 2a3c 033c c03a 5b3b
00000140: 233c e43a da3a 2c3c 183a 223c 223c 363c
00000150: 213b 313c fc3b 203c ac3b 423b df3a 243c
00000160: 243c 153c 9a3b 073c 483b 233c c83b 363c
00000170: d33a 223c 273c 6d3b e03b 303c 2b3c 5d3b
00000180: 073c 203c 5c3b 1f3c 163c 5d3b 243c 283c
00000190: 243c 213c 8e3b 643b 273b f23a fa3a 2a3b
000001a0: 643b 263c 2f3c fe3b 6a3b 1b3c 973b 363c
000001b0: 2b3c 313c 163b 1b3c b83b c43b 1f3c 173c
000001c0: c33b 323c ad3b f73b 503b 2c3c c03b f93b
000001d0: 153c 1f3c 203c 1a3b 183c 2e3c 593b 1b3c
000001e0: 063c 1a3c 033c 173c 1f3c 473a e23a 4b3b
000001f0: 303c 233c 2e3c 163b 2b3c d83b 283c 1e3c

arith.constant28 f2 [512, 128]
0.04443 0.05463 0.0003908 0.03079 0.0694 0.0443 0.1372 0.0421
-0.071 0.0949 -0.0393 -0.05957 0.0357 0.0844 0.05652 0.03485
-0.03754 0.03247 -0.0354 -0.1071 0.03442 0.06213 0.01727 0.01375
0.1042 0.06604 -0.07855 -0.005672 -0.004303 0.01439 -0.11 -0.03833
0.04187 -0.04825 -0.101 0.10504 -0.1066 0.03485 0.00583 0.0815
0.04254 -0.1259 0.06238 0.11255 -0.02477 -0.02083 -0.0699 -0.06683
0.03845 -0.0685 -0.0167 0.1038 -0.02101 0.0792 -0.00208 -0.1179
0.081 0.1404 0.04395 -0.0611 0.07587 0.1416 -0.04132 -0.1044
0.00797 0.0722 -0.0687 0.0958 -0.1356 0.12225 0.0773 0.03915
0.06494 -0.0301 0.0699 0.1299 0.09546 -0.05136 0.03433 0.00289
-0.0408 0.04175 -0.1158 0.0743 0.11127 -0.00438 0.0684 -0.05182
0.0961 -0.03156 0.09296 -0.02884 -0.1237 0.01529 0.0398 -0.0508
0.1289 0.07117 -0.0787 -0.01825 0.1167 0.1317 0.04565 -0.1057
0.0604 -0.0447 -0.01447 -0.0382 -0.01758 -0.04004 -0.0268 -0.10864
-0.01831 0.1049 -0.10956 -0.048 -0.0802 -0.1231 -0.1223 0.03117
-0.03354 0.0322 0.0484 0.07574 -0.0936 -0.02347 -0.05576 -0.1081
0.0555 -0.0352 -0.01185 0.008095 0.006523 -0.08453 0.09064 0.0875
0.0212 0.0013685 0.06494 0.0948 -0.0538 0.0684 -0.02872 -0.005665
-0.05838 0.05682 0.03882 -0.07697 -0.0675 -0.08215 0.0722 0.03925
0.03683 0.01868 0.06793 -0.05075 -0.07007 -0.0363 0.004776 -0.07294
-0.05142 0.00787 0.0706 -0.01593 -0.0697 -0.0938 0.04556 -0.02876
0.04623 -0.009056 -0.06415 0.04333 0.04156 -0.02063 0.064 0.1012
-0.03098 -0.06134 -0.00826 -0.04803 0.00901 0.11475 -0.05508 -0.11505
-0.0702 0.04996 0.008 0.06165 -0.0672 -0.07153 0.000801 -0.06384
0.02852 -0.04208 0.04324 0.10034 -0.03314 -0.02777 0.1122 -0.0376
-0.05154 0.08264 0.0379 -0.00702 0.10645 0.002584 -0.0975 -0.0732
-0.01459 0.0006604 -0.01131 0.0563 0.10803 -0.07697 0.02406 0.003662
0.1068 0.05203 0.00901 -0.05597 0.0724 -0.0687 -0.0699 0.00678
0.0938 0.0469 0.02353 -0.06775 0.0899 -0.0653 0.0828 -0.003166
-0.09766 0.06116 -0.06885 0.02077 0.04797 -0.00725 -0.0379 -0.05417
0.05515 0.02913 -0.107 0.0965 0.0728 -0.0807 -0.02278 0.0869
0.0731 -0.0895 -0.01776 -0.0976 -0.02742 -0.004597 0.0524 0.0393
00000000: b029 fe2a 670e e227 712c ac29 6430 6429
00000010: 8bac 132e 08a9 a0ab 9228 672d 3c2b 7628
00000020: cea8 2828 88a8 dbae 6828 f42b 6c24 0a23
00000030: ab2e 3a2c 07ad cf9d 689c 5e23 0aaf e8a8
00000040: 5c29 2daa 77ae b92e d3ae 7628 f81d 372d
00000050: 7229 07b0 fc2b 342f 57a6 55a5 79ac 47ac
00000060: ec28 62ac 46a4 a52e 61a5 122d 4398 8caf
00000070: 2f2d 7e30 a029 d2ab db2c 8830 4aa9 aeae
00000080: 1520 9f2c 66ac 222e 57b0 d32f f22c 0329
00000090: 282c b5a7 792c 2830 1c2e 93aa 6528 eb19
000000a0: 39a9 5829 69af c12c 1f2f 7c9c 612c a2aa
000000b0: 272e 0aa8 f32d 62a7 ebaf d423 1829 81aa
000000c0: 2030 8e2c 09ad aca4 782f 3730 d829 c4ae
000000d0: bb2b b9a9 69a3 e4a8 80a4 20a9 dca6 f4ae
000000e0: b0a4 b72e 03af 25aa 22ad e1af d4af fb27
000000f0: 4ba8 1f28 322a d92c fead 02a6 23ab ebae
00000100: 1b2b 81a8 11a2 2520 ae1e 69ad cd2d 9a2d
00000110: 6d25 9b15 282c 112e e3aa 612c 5aa7 cd9d
00000120: 79ab 462b f828 edac 52ac 42ad 9f2c 0629
00000130: b728 c824 592c 7faa 7cac a5a8 e41c abac
00000140: 95aa 0820 852c 14a4 76ac 01ae d529 5da7
00000150: eb29 a3a0 1bac 8c29 5229 48a5 192c 7a2e
00000160: eea7 daab 3ba0 26aa 9d20 582f 0dab 5daf
00000170: 7eac 652a 1920 e42b 4dac 94ac 9012 16ac
00000180: 4d27 63a9 8929 6c2e 3ea8 1ca7 2e2f d0a8
00000190: 99aa 4a2d da28 309f d02e 4b19 3dae afac
000001a0: 78a3 6911 caa1 352b ea2e edac 2926 801b
000001b0: d62e a92a 9d20 2aab a22c 66ac 79ac f11e
000001c0: 012e 012a 0626 56ac c12d 2eac 4d2d 7c9a
000001d0: 40ae d42b 68ac 5125 242a 6d9f daa8 efaa
000001e0: 0f2b 7527 d9ae 2d2e a92c 2aad d5a5 902d
000001f0: ae2c baad 8ca4 3fae 05a7 b59c b52a 0829

arith.constant30 f2 [512, 128]
0.086 0.0851 0.007206 -0.04645 0.0316 0.07574 0.02388 -0.004948
0.00625 0.11395 0.0325 -0.145 -0.03345 0.1326 -0.07135 0.12
-0.0784 -0.09344 -0.02956 -0.005627 0.0425 0.0451 -0.01066 0.02641
0.004997 -0.012184 0.03348 0.04892 -0.04724 -0.111 -0.013 0.1263
0.0924 -0.1423 -0.095 -0.0502 0.01854 0.001187 0.10016 0.00987
-0.05966 -0.0363 -0.03525 -0.06158 0.05362 0.082 -5.08e-05 -0.0315
0.1168 -0.02327 0.04016 0.0625 -0.00614 -0.07465 0.03174 0.05518
-0.0945 0.09155 -0.01949 0.02606 -0.0653 -0.02953 -0.03397 -0.0926
-0.03867 -0.05225 0.06647 -0.1389 0.1326 -0.03796 -0.05756 -0.011055
-0.1228 0.01469 -0.06235 0.0898 0.06195 0.03427 -0.08594 -0.06033
-0.0951 -0.0649 0.08746 -0.12286 -0.117 -0.00355 -0.0783 0.01726
0.011856 -0.2047 -0.1481 -0.1516 -0.09735 0.09546 0.1093 0.03445
-0.05362 0.003727 -0.1057 0.08356 0.03693 0.0886 -0.0313 0.11285
0.1233 -0.10565 -0.02818 0.03577 0.00358 -0.02014 -0.001193 0.1107
0.0441 0.00903 -0.02373 -0.01738 0.06494 0.02336 0.02322 -0.02524
0.0762 -0.03995 -0.01768 0.0918 0.02069 -0.1162 0.12024 -0.004593
-0.0825 0.087 0.000975 -0.01071 -0.05655 -0.01889 -0.1094 -0.1106
0.06174 0.005287 0.0359 0.0398 0.0948 0.08966 -0.07697 0.010506
-0.10864 -0.03717 0.03256 0.03848 -0.0934 0.06366 -0.005993 0.0704
-0.02286 0.081 -0.01005 0.04697 0.02287 0.01854 0.104 0.04178
-0.06055 0.01987 0.02193 0.086 0.0995 -0.07513 0.0937 0.0424
-0.0454 0.05405 0.04858 -0.1194 -0.05902 0.0703 -0.11115 -0.005833
0.00448 0.0671 0.0038 0.08484 0.00439 0.010124 0.02663 0.05093
0.09576 0.07007 -0.04877 0.065 0.02559 0.0656 0.0786 0.004425
-0.1032 -0.003517 -0.04544 -0.04803 -0.0162 -0.07806 -0.0813 0.10254
-0.00764 -0.0943 -0.04117 0.0836 0.049 -0.0363 0.0251 0.02863
0.04788 0.0885 0.082 -0.08167 -0.0858 -0.0754 -0.111 0.01689
-0.0594 -0.08875 -0.02246 -0.03656 -0.11285 -0.05573 0.08734 0.04346
0.001779 0.07367 -0.0665 -0.07324 -0.06235 -0.0743 -0.06204 0.01741
0.0467 0.0803 0.01546 0.03702 -0.01596 -0.0661 -0.04376 0.04623
0.0481 -0.0637 0.0726 0.0884 0.0893 -0.0628 -0.01753 -0.0758
0.11804 0.01776 0.0374 0.02425 -0.09186 -0.1221 -0.01067 -0.1029
00000000: 812d 722d 611f f2a9 0b28 d92c 1d26 119d
00000010: 661e 4b2f 2928 a4b0 48a8 3e30 91ac ae2f
00000020: 05ad fbad 91a7 c39d 7129 c629 75a1 c326
00000030: 1e1d 3da2 4928 432a 0caa 1baf a8a2 0b30
00000040: ea2d 8eb0 14ae 6daa bf24 dd14 692e 0e21
00000050: a3ab a5a8 83a8 e2ab dd2a 3f2d 5483 08a8
00000060: 7a2f f5a5 2429 002c 4a9e c7ac 1028 102b
00000070: 0cae dc2d fda4 ac26 2eac 8fa7 59a8 edad
00000080: f3a8 b0aa 412c 72b0 3e30 dca8 5eab a9a1
00000090: dcaf 8523 fbab bf2d ee2b 6328 80ad b9ab
000000a0: 16ae 27ac 992d ddaf 7daf 459b 03ad 6b24
000000b0: 1222 8db2 bdb0 dab0 3bae 1c2e ff2e 6928
000000c0: ddaa a21b c4ae 592d ba28 ac2d 02a8 392f
000000d0: e42f c3ae 37a7 9428 551b 28a5 e394 162f
000000e0: a529 a020 13a6 73a4 282c fb25 f225 76a6
000000f0: e02c 1da9 87a4 e02d 4c25 70af b22f b49c
00000100: 48ad 912d fd13 7ca1 3dab d6a4 00af 14af
00000110: e72b 6a1d 9828 1829 112e bd2d edac 6121
00000120: f4ae c2a8 2b28 ed28 faad 132c 239e 812c
00000130: daa5 2f2d 25a1 032a db25 bf24 a82e 5929
00000140: c0ab 1625 9d25 812d 5e2e cfac ff2d 6d29
00000150: d0a9 eb2a 382a a4af 8eab 802c 1daf f99d
00000160: 961c 4b2c c81b 6e2d 7f1c 2f21 d126 852a
00000170: 212e 7c2c 3eaa 292c 8d26 332c 082d 881c
00000180: 9bae 349b d1a9 26aa 26a4 ffac 34ad 902e
00000190: d39f 09ae 45a9 5a2d 462a a5a8 6d26 5427
000001a0: 212a aa2d 3f2d 3aad 7ead d3ac 1baf 5324
000001b0: 9aab aead c0a5 aea8 39af 22ab 972d 9029
000001c0: 4917 b72c 42ac b0ac fbab c1ac f1ab 7524
000001d0: fa29 242d ea23 bd28 16a4 3bac 9aa9 eb29
000001e0: 282a 14ac a52c a82d b72d 05ac 7da4 daac
000001f0: 8e2f 8c24 ca28 3526 e1ad d0af 77a1 96ae

arith.constant32 f2 [512]
0.01962 0.0182 0.10004 0.01368 0.01344 0.0249 0.01552 -0.005585
0.02667 0.01845 0.003428 0.01843 0.03075 0.018 0.08527 0.158
0.11444 0.0368 0.01784 -0.0447 0.007263 0.199 -0.01923 0.0803
0.07166 0.01559 0.1349 0.03647 -0.05212 0.04288 -0.001647 -0.1285
0.0279 0.0906 0.1855 0.04025 0.12177 0.01714 0.03146 0.1093
-0.009 0.01496 0.01552 0.04855 0.005966 0.02824 0.06396 0.1854
0.1304 0.02544 0.0869 -0.0565 0.1284 0.05008 0.02133 0.1418
0.1417 0.08923 0.2211 0.09644 -0.004105 0.08246 0.1942 0.01842
0.06305 0.01451 0.08264 -0.00829 0.0892 0.01831 -0.0646 0.02524
0.0406 0.2192 -0.005447 0.12415 0.03873 -0.01403 0.2566 0.08154
0.01877 0.03308 0.02246 0.1615 0.02063 0.00694 0.01857 0.01364
0.01862 0.05237 0.1126 0.012245 0.05093 0.01898 -0.006306 -0.01738
0.1222 0.01595 0.03687 0.09064 -0.004894 0.12366 0.03806 0.01736
0.009254 0.08295 0.11975 0.0452 0.05222 0.07367 0.1046 0.015015
0.04718 0.04877 -0.02328 0.07245 0.01793 0.01883 0.01228 0.0239
0.06647 0.03014 0.02646 0.1592 0.1348 0.013794 0.0188 0.03293
1.028 1.02 1.089 1.033 1.033 1.039 1.02 1.025
0.9907 1.032 0.9688 0.942 1.018 1.026 0.9204 1.059
0.969 1.007 1.027 0.8438 1.033 0.883 0.95 0.9966
0.9487 1.022 0.813 1.033 0.928 1.057 0.8496 0.7627
1.032 0.732 0.9033 0.922 0.883 1.026 0.947 0.993
0.8438 1.02 1.029 1.001 1.024 1.027 0.993 0.874
0.9663 1.038 0.942 0.849 0.954 1.031 1.035 1.013
0.9395 0.9473 0.9473 0.831 0.8438 0.9766 0.958 1.027
0.727 0.952 0.923 0.9014 1.017 1.041 0.851 1.037
0.8833 0.859 1.06 0.913 1.036 0.7754 1.026 0.782
1.028 1.044 1.037 0.9604 1.032 1.026 1.025 1.046
1.026 0.9106 0.802 1.037 0.9854 1.036 0.9165 0.8325
0.845 1.025 1.031 0.847 1.058 0.975 0.7886 1.035
0.9844 0.97 0.9463 0.956 1.021 0.955 0.988 1.0205
1.037 0.872 0.8945 1.013 1.033 1.029 1.037 1.05
0.808 1.048 1.036 0.9614 0.9067 1.02 1.037 0.8696
00000000: 0625 a924 672e 0123 e222 6026 f223 b89d
00000010: d426 b924 051b b824 df27 9c24 752d 0e31
00000020: 532f b628 9124 b9a9 701f 5e32 eca4 242d
00000030: 962c fb23 5130 ab28 acaa 7d29 bf96 1db0
00000040: 2427 cc2d f031 2729 cb2f 6324 0728 ff2e
00000050: 9ca0 a923 f223 372a 1c1e 3b27 182c ef31
00000060: 2c30 8326 902d 3bab 1c30 692a 7625 8a30
00000070: 8930 b62d 1333 2c2e 349c 472d 3732 b724
00000080: 092c 6e23 4a2d 3fa0 b52d b024 22ac 7626
00000090: 3229 0433 949d f22f f528 2fa3 1b34 382d
000000a0: ce24 3c28 c025 2b31 4825 1b1f c124 fc22
000000b0: c424 b42a 352f 4522 852a dc24 759e 73a4
000000c0: d22f 1524 b828 cd2d 039d ea2f df28 7224
000000d0: bd20 4f2d aa2f c929 af2a b72c b22e b023
000000e0: 0a2a 3e2a f6a5 a32c 9724 d224 4a22 1e26
000000f0: 412c b727 c626 1831 5030 1023 d024 3728
00000100: 1d3c 143c 5b3c 223c 223c 283c 143c 1a3c
00000110: ed3b 213c c03b 893b 123c 1b3c 5d3b 3c3c
00000120: c13b 073c 1c3c c03a 223c 103b 9a3b f93b
00000130: 973b 173c 813a 223c 6d3b 3a3c cc3a 1a3a
00000140: 213c db39 3a3b 603b 103b 1b3c 933b f23b
00000150: c03a 143c 1e3c 013c 193c 1c3c f23b fe3a
00000160: bb3b 273c 893b cb3a a23b 203c 243c 0d3c
00000170: 843b 943b 943b a63a c03a d03b aa3b 1c3c
00000180: d139 9e3b 623b 363b 113c 2a3c cf3a 263c
00000190: 113b df3a 3d3c 4e3b 253c 343a 1b3c 423a
000001a0: 1d3c 2d3c 263c af3b 213c 1b3c 1a3c 2f3c
000001b0: 1b3c 493b 6a3a 263c e23b 253c 553b a93a
000001c0: c33a 1a3c 203c c73a 3b3c cd3b 4f3a 243c
000001d0: e03b c33b 923b a63b 163c a43b e73b 153c
000001e0: 263c fa3a 283b 0d3c 223c 1e3c 263c 333c
000001f0: 773a 313c 253c b13b 413b 143c 263c f53a

arith.constant38 f2 [512, 128]
0.0246 0.05972 -0.03394 -0.0399 -0.01217 -0.05933 -0.07605 -0.0751
0.04733 0.10284 0.03854 -0.07227 0.08105 0.02757 -0.05392 -0.01303
0.00917 0.02359 -0.03152 -0.001085 -0.02808 -0.003681 -0.03955 0.0611
0.06232 0.1123 0.06934 -0.1032 0.0641 0.04388 0.08136 -0.0007377
-0.02681 0.09106 -0.02061 0.0799 0.05862 -0.07996 0.00438 0.006683
-0.0976 0.07904 -0.01007 -0.06604 0.04913 0.0689 0.05457 0.03192
-0.02635 0.00621 0.03183 0.013275 0.03114 0.11145 -0.06165 0.01575
0.04358 -0.07416 -0.07764 0.0193 -0.01487 -0.07837 0.1001 0.05734
0.09796 0.04196 -0.05676 0.00182 -0.09924 0.0656 -0.0703 -0.011055
-0.0431 -0.0544 0.02762 -0.05417 -0.10876 -0.0774 -0.05096 -0.00898
0.0261 0.006897 0.02922 0.0877 0.05255 0.07806 0.03967 0.0341
0.07275 -0.004677 -0.004795 -0.06244 0.1072 -0.04486 0.001048 0.05954
0.06915 -0.0368 0.0611 0.02711 -0.0416 -0.005013 -0.067 -0.005413
-0.02379 0.01967 0.03333 -0.06097 0.01101 0.10767 0.077 -0.0834
-0.0015545 -0.06323 -0.07513 0.01889 0.11053 0.01449 -0.0912 0.03111
-0.001384 0.06183 0.09454 0.06104 -0.1049 -0.0745 -0.1077 -0.0642
0.1095 0.0856 -0.0834 0.0547 -0.1039 0.01637 -0.0649 -0.06976
0.0288 -0.08026 -0.003963 0.03012 -0.0624 -0.03928 -0.0741 0.00977
0.10297 0.06238 -0.1002 0.0695 0.0737 -0.001185 0.01569 -0.0283
-0.0625 0.005177 0.02965 -0.1094 -0.05402 -0.011116 0.04712 0.02684
0.02383 -0.0769 -0.01802 0.0668 0.0635 0.08014 0.04047 0.02686
0.06003 0.11005 -0.001137 0.0889 0.08826 -0.058 0.04688 0.105
0.04355 0.009895 -0.05307 0.06232 -0.1192 -0.03105 0.04257 0.08154
0.1019 -0.0714 0.05573 -0.05972 -0.01828 0.0686 0.03137 -0.05377
-0.04745 -0.07166 -0.0531 -0.0094 0.0116 -0.004906 -0.05197 -0.003029
-0.02957 0.04172 0.0357 0.06186 -0.1131 0.01929 0.05515 -0.04993
-0.07837 -0.002836 0.0903 0.0921 0.03235 0.01802 -0.01104 -0.0585
0.0608 0.0634 -0.02568 0.0477 -0.00716 0.0703 -0.0619 -0.02884
0.02634 0.05933 -0.02565 -0.05365 -0.02563 -0.05145 0.02084 -0.0642
-0.01978 -0.04318 0.02881 0.015495 0.06604 0.01756 -0.0681 -0.05597
-0.04846 0.0785 0.0722 0.03894 0.02911 -0.05746 0.0315 -0.001113
0.001799 0.0681 0.04376 -0.0619 0.0809 0.1062 0.0588 -0.02892
00000000: 4c26 a52b 58a8 1ba9 3ba2 98ab deac ceac
00000010: 0f2a 952e ef28 a0ac 302d 0f27 e7aa aca2
00000020: b220 0a26 09a8 7294 30a7 8a9b 10a9 d22b
00000030: fa2b 302f 702c 9bae 1a2c 9e29 352d 0b92
00000040: dda6 d42d 47a5 1d2d 812b 1ead 7c1c d81e
00000050: 3fae 0f2d 28a1 3aac 4a2a 692c fc2a 1628
00000060: bfa6 5c1e 1328 cc22 f927 222f e4ab 0824
00000070: 9429 bfac f8ac f124 9da3 04ad 682e 572b
00000080: 452e 5f29 44ab 7417 5aae 332c 80ac a9a1
00000090: 84a9 f7aa 1227 efaa f6ae f4ac 86aa 99a0
000000a0: ae26 101f 7b27 9d2d ba2a ff2c 1429 5d28
000000b0: a82c ca9c e99c feab dc2e bea9 4b14 9f2b
000000c0: 6d2c b6a8 d22b f126 53a9 229d 4aac 8b9d
000000d0: 17a6 0925 4428 ceab a321 e42e ee2c 56ad
000000e0: 5e96 0cac cfac d624 132f 6b23 d6ad f727
000000f0: ab95 ea2b 0d2e d02b b7ae c5ac e5ae 1cac
00000100: 022f 7a2d 56ad 002b a6ae 3124 27ac 77ac
00000110: 5f27 23ad 0f9c b627 fdab 07a9 beac 0121
00000120: 972e fc2b 6aae 732c b82c db94 0424 3fa7
00000130: 00ac 4d1d 9727 00af eaaa b1a1 082a df26
00000140: 1a26 ecac 9da4 462c 102c 212d 2e29 e026
00000150: af2b 0b2f a894 b12d a62d 6dab 002a b82e
00000160: 9329 1121 cbaa fa2b a1af f3a7 7329 382d
00000170: 862e 92ac 222b a5ab aea4 642c 0428 e2aa
00000180: 13aa 96ac ccaa d0a0 f021 069d a7aa 349a
00000190: 92a7 5729 9228 eb2b 3daf f024 0f2b 64aa
000001a0: 04ad cf99 c72d e52d 2428 9d24 a7a1 7dab
000001b0: c82b 0f2c 93a6 1b2a 559f 802c ecab 62a7
000001c0: be26 982b 91a6 deaa 90a6 96aa 5625 1cac
000001d0: 10a5 87a9 6027 ef23 3a2c 7f24 5cac 2aab
000001e0: 34aa 062d 9f2c fc28 7427 5bab 0828 8f94
000001f0: 5e17 5c2c 9a29 ecab 2d2d cc2e 872b 67a7

arith.constant40 f2 [512, 128]
0.062 0.01706 0.0706 0.011406 0.009026 -0.09296 0.04498 0.00964
-0.06003 0.1091 -0.0691 0.04843 -0.0745 0.1095 0.0661 0.0757
-0.001501 0.0648 0.0961 -0.0941 0.0771 0.04086 0.02388 -0.081
0.08936 -0.02101 -0.02844 -0.01241 0.01584 -0.0432 -0.07355 0.03772
0.0396 0.0806 -0.05414 0.02693 -0.00566 -0.05542 0.0425 -0.01955
-0.0722 -0.0445 -0.0771 0.0802 0.1061 -0.05118 -0.0965 0.0394
0.02559 0.07056 0.06647 0.06204 0.04602 -0.05466 -0.1101 -0.01654
-0.03064 -0.04608 0.06903 -0.0867 -0.04025 0.092 0.010475 0.076
-0.007236 0.0279 -0.104 -0.0759 -0.04755 -0.02466 0.03375 0.04434
-0.0375 0.07367 0.01692 0.03995 0.0654 0.02296 -0.0802 -0.0344
0.01346 -0.0632 0.06323 0.11 -0.05603 0.0122 0.044 -0.1086
0.0434 -0.0857 0.0769 -0.0719 0.06012 0.01262 6.89e-05 -0.04224
-0.07465 0.02919 -0.06793 -0.0409 0.09125 0.03586 -0.01907 -0.1026
-0.10815 -0.011505 0.03296 -0.00881 0.05212 -0.06058 -0.0866 -0.04657
0.0915 -0.006268 -0.096 0.09784 0.04343 0.05527 0.015465 0.0732
-0.10785 -0.0979 -0.0658 -0.005444 -0.07196 -0.05484 0.01493 -0.02206
-0.1007 -0.03687 0.01698 -0.11346 -0.04657 0.0544 0.0652 0.008286
-0.0215 0.002419 0.05255 0.0461 -0.0726 0.07043 0.06616 -0.01015
0.0349 0.06665 0.06494 0.06335 0.06146 0.0777 -0.0761 0.0771
-0.06036 -0.01073 0.07556 -0.02753 0.1078 -0.03555 -0.03653 0.0687
0.001596 -0.005188 -0.02892 0.0001949 0.03818 0.02132 -0.0999 0.02963
0.05994 -0.0857 0.06137 -0.01132 -0.02252 -0.001838 -0.05927 0.08325
0.0857 0.01945 0.0282 -0.06586 -0.0695 0.088 -0.09717 -0.0955
-0.01813 -0.04977 0.04953 -0.01185 0.02106 0.03455 0.03357 -0.00756
-0.03513 -0.03436 -0.07745 -0.0614 0.01822 -0.01407 -0.003914 -0.004944
-0.04208 -0.02388 -0.03111 -0.06415 -0.02881 0.09607 -0.09894 0.006233
-0.0209 0.0407 -0.0924 0.0001487 -0.03625 0.01293 -0.05737 0.04886
0.04977 -0.00535 -0.10583 0.02528 0.06213 0.0201 0.1104 -0.01878
0.02719 0.08374 0.03943 -0.0613 0.104 -0.0454 -0.02718 0.01027
-0.01469 -0.063 0.06934 -0.0232 -0.0451 0.04977 -0.0361 0.02644
-0.0328 0.04968 -0.01143 -0.01248 0.0717 -0.08435 -0.03403 0.0804
-0.1143 -0.03812 0.03775 0.03177 0.0655 -0.0687 0.07513 0.05518
00000000: f02b 5e24 852c d721 9f20 f3ad c229 f020
00000010: afab fb2e 6cac 332a c5ac 022f 3b2c d82c
00000020: 2696 262c 272e 06ae ef2c 3b29 1d26 2fad
00000030: b82d 61a5 48a7 5ba2 0e24 88a9 b5ac d428
00000040: 1229 292d eeaa e526 cc9d 18ab 7129 01a5
00000050: 9fac b2a9 efac 222d ca2e 8daa 2dae 0b29
00000060: 8d26 842c 412c f12b e429 ffaa 0caf 3ca4
00000070: d8a7 e6a9 6b2c 8cad 27a9 e32d 5d21 dd2c
00000080: 699f 2427 a8ae dcac 16aa 50a6 5228 ad29
00000090: cda8 b72c 5524 1d29 302c e125 22ad 67a8
000000a0: e422 0bac 0c2c 0a2f 2cab 3f22 a229 f3ae
000000b0: 8e29 7cad ec2c 9aac b22b 7622 8404 68a9
000000c0: c7ac 7927 59ac 3ca9 d72d 9728 e2a4 91ae
000000d0: ecae e4a1 3828 83a0 ac2a c1ab 8bad f6a9
000000e0: db2d 6b9e 25ae 432e 8f29 132b eb23 af2c
000000f0: e7ae 44ae 36ac 939d 9bac 05ab a523 a6a5
00000100: 72ae b8a8 5924 43af f6a9 f72a 2c2c 3e20
00000110: 81a5 f418 ba2a e729 a5ac 822c 3c2c 32a1
00000120: 7828 442c 282c 0e2c de2b f92c dfac ef2c
00000130: baab 7ea1 d62c 0ca7 e62e 8da8 ada8 662c
00000140: 8a16 509d 67a7 630a e328 7525 65ae 9627
00000150: ac2b 7cad db2b cca1 c4a5 8797 96ab 542d
00000160: 7c2d fb24 3827 37ac 73ac a22d 38ae 1dae
00000170: a4a4 5faa 572a 11a2 6425 6c28 4c28 be9f
00000180: 7fa8 66a8 f5ac dcab aa24 34a3 029c 109d
00000190: 63a9 1da6 f7a7 1bac 60a7 262e 55ae 621e
000001a0: 5aa5 3629 eaad df08 a4a8 9f22 58ab 412a
000001b0: 5f2a 7a9d c6ae 7926 f42b 2525 112f cfa4
000001c0: f626 5c2d 0c29 d9ab a82e d0a9 f5a6 4221
000001d0: 85a3 08ac 702c f0a5 c6a9 5f2a 9fa8 c526
000001e0: 33a8 5c2a daa1 64a2 972c 66ad 5ba8 252d
000001f0: 51af e1a8 d528 1128 312c 66ac cf2c 102b
